…
    col_names=["input_size", "output_size", "num_params", "trainable"],
    col_width=20,
    row_settings=["var_names"]
)
</code></pre>

<p>which prints out:</p>

<pre><code class="language-#1">===========================================================================================================================
Layer (type (var_name))                            Input Shape          Output Shape         Param #              Trainable
===========================================================================================================================
DeepLabV3 (DeepLabV3)                              [2, 3, 1024, 1024]   [2, 2, 1024, 1024]   --                   True
├─IntermediateLayerGetter (backbone)               [2, 3, 1024, 1024]   [2, 2048, 128, 128]  --                   True
│    └─Conv2d (conv1)                              [2, 3, 1024, 1024]   [2, 64, 512, 512]    9,408                True
│    └─BatchNorm2d (bn1)                           [2, 64, 512, 512]    [2, 64, 512, 512]    128                  True
│    └─ReLU (relu)                                 [2, 64, 512, 512]    [2, 64, 512, 512]    --                   --
│    └─MaxPool2d (maxpool)                         [2, 64, 512, 512]    [2, 64, 256, 256]    --                   --
│    └─Sequential (layer1)                         [2, 64, 256, 256]    [2, 256, 256, 256]   --                   True
│    │    └─Bottleneck (0)                         [2, 64, 256, 256]    [2, 256, 256, 256]   75,008               True
│    │    └─Bottleneck (1)                         [2, 256, 256, 256]   [2, 256, 256, 256]   70,400               True
│    │    └─Bottleneck (2)                         [2, 256, 256, 256]   [2, 256, 256, 256]   70,400               True
.                                                           .                                                       .
.                                                           .                                                       .
.                                                           .                                                       .
├─DeepLabHead (classifier)                         [2, 2048, 128, 128]  [2, 2, 128, 128]     --                   True
│    └─ASPP (0)                                    [2, 2048, 128, 128]  [2, 256, 128, 128]   --                   True
│    │    └─ModuleList (convs)                     --                   --                   15,206,912           True
│    │    └─Sequential (project)                   [2, 1280, 128, 128]  [2, 256, 128, 128]   328,192              True
│    └─Conv2d (1)                                  [2, 256, 128, 128]   [2, 256, 128, 128]   589,824              True
│    └─BatchNorm2d (2)                             [2, 256, 128, 128]   [2, 256, 128, 128]   512                  True
│    └─ReLU (3)                                    [2, 256, 128, 128]   [2, 256, 128, 128]   --                   --
│    └─Conv2d (4)                                  [2, 256, 128, 128]   [2, 2, 128, 128]     514                  True
===========================================================================================================================
Total params: 39,633,986
Trainable params: 39,633,986
Non-trainable params: 0
Total mult-adds (T): 1.31
===========================================================================================================================
Input size (MB): 25.17
Forward/backward pass size (MB): 17650.16
…
